…
2025-03-08 14:34:38,141   INFO  ==> Loading parameters from checkpoint /home/ljh/MTR/output/social_aware/mtr_social_aware_train/result_social_aware_1/ckpt/checkpoint_epoch_4.pth to GPU
2025-03-08 14:34:38,552   INFO  ==> Loading optimizer parameters from checkpoint /home/ljh/MTR/output/social_aware/mtr_social_aware_train/result_social_aware_1/ckpt/checkpoint_epoch_4.pth to GPU
2025-03-08 14:34:38,585   INFO  ==> Done (loaded 842/842)
2025-03-08 14:34:38,587   INFO  MotionTransformer(
  (context_encoder): MTREncoder(
    (agent_polyline_encoder): PointNetPolylineEncoder(
      (pre_mlps): Sequential(
        (0): Linear(in_features=11, out_features=256, bias=False)
        (1): BatchNorm1d(256, eps=1e-05, momentum=0.1, affine=True, track_running_stats=True)
        (2): ReLU()
      )
      (mlps): Sequential(
        (0): Linear(in_features=512, out_features=256, bias=False)
        (1): BatchNorm1d(256, eps=1e-05, momentum=0.1, affine=True, track_running_stats=True)
        (2): ReLU()
        (3): Linear(in_features=256, out_features=256, bias=False)
        (4): BatchNorm1d(256, eps=1e-05, momentum=0.1, affine=True, track_running_stats=True)
        (5): ReLU()
      )
      (out_mlps): Sequential(
        (0): Linear(in_features=256, out_features=256, bias=True)
        (1): ReLU()
        (2): Linear(in_features=256, out_features=256, bias=True)
      )
    )
    (map_polyline_encoder): PointNetPolylineEncoder(
      (pre_mlps): Sequential(
        (0): Linear(in_features=12, out_features=64, bias=False)
        (1): BatchNorm1d(64, eps=1e-05, momentum=0.1, affine=True, track_running_stats=True)
        (2): ReLU()
        (3): Linear(in_features=64, out_features=64, bias=False)
        (4): BatchNorm1d(64, eps=1e-05, momentum=0.1, affine=True, track_running_stats=True)
        (5): ReLU()
        (6): Linear(in_features=64, out_features=64, bias=False)
        (7): BatchNorm1d(64, eps=1e-05, momentum=0.1, affine=True, track_running_stats=True)
        (8): ReLU()
      )
      (mlps): Sequential(
        (0): Linear(in_features=128, out_features=64, bias=False)
        (1): BatchNorm1d(64, eps=1e-05, momentum=0.1, affine=True, track_running_stats=True)
        (2): ReLU()
        (3): Linear(in_features=64, out_features=64, bias=False)
        (4): BatchNorm1d(64, eps=1e-05, momentum=0.1, affine=True, track_running_stats=True)
        (5): ReLU()
      )
      (out_mlps): Sequential(
        (0): Linear(in_features=64, out_features=64, bias=True)
        (1): ReLU()
        (2): Linear(in_features=64, out_features=256, bias=True)
      )
    )
    (self_attn_layers): ModuleList(
      (0-5): 6 x TransformerEncoderLayer(
        (self_attn): MultiheadAttentionLocal(
          (out_proj): Linear(in_features=256, out_features=256, bias=True)
        )
        (linear1): Linear(in_features=256, out_features=1024, bias=True)
        (dropout): Dropout(p=0.1, inplace=False)
        (linear2): Linear(in_features=1024, out_features=256, bias=True)
        (norm1): LayerNorm((256,), eps=1e-05, elementwise_affine=True)
        (norm2): LayerNorm((256,), eps=1e-05, elementwise_affine=True)
        (dropout1): Dropout(p=0.1, inplace=False)
        (dropout2): Dropout(p=0.1, inplace=False)
      )
    )
  )
  (motion_decoder): MTRDecoder(
    (in_proj_center_obj): Sequential(
      (0): Linear(in_features=256, out_features=512, bias=True)
      (1): ReLU()
      (2): Linear(in_features=512, out_features=512, bias=True)
    )
    (in_proj_obj): Sequential(
      (0): Linear(in_features=256, out_features=512, bias=True)
      (1): ReLU()
      (2): Linear(in_features=512, out_features=512, bias=True)
    )
    (obj_decoder_layers): ModuleList(
      (0-5): 6 x TransformerDecoderLayer(
        (sa_qcontent_proj): Linear(in_features=512, out_features=512, bias=True)
        (sa_qpos_proj): Linear(in_features=512, out_features=512, bias=True)
        (sa_kcontent_proj): Linear(in_features=512, out_features=512, bias=True)
        (sa_kpos_proj): Linear(in_features=512, out_features=512, bias=True)
        (sa_v_proj): Linear(in_features=512, out_features=512, bias=True)
        (self_attn): MultiheadAttention(
          (out_proj): Linear(in_features=512, out_features=512, bias=True)
        )
        (norm1): LayerNorm((512,), eps=1e-05, elementwise_affine=True)
        (dropout1): Dropout(p=0.1, inplace=False)
        (ca_qcontent_proj): Linear(in_features=512, out_features=512, bias=True)
        (ca_qpos_proj): Linear(in_features=512, out_features=512, bias=True)
        (ca_kcontent_proj): Linear(in_features=512, out_features=512, bias=True)
        (ca_kpos_proj): Linear(in_features=512, out_features=512, bias=True)
        (ca_v_proj): Linear(in_features=512, out_features=512, bias=True)
        (ca_qpos_sine_proj): Linear(in_features=512, out_features=512, bias=True)
        (cross_attn): MultiheadAttention(
          (out_proj): Linear(in_features=512, out_features=512, bias=True)
        )
        (linear1): Linear(in_features=512, out_features=2048, bias=True)
        (dropout): Dropout(p=0.1, inplace=False)
        (linear2): Linear(in_features=2048, out_features=512, bias=True)
        (norm2): LayerNorm((512,), eps=1e-05, elementwise_affine=True)
        (norm3): LayerNorm((512,), eps=1e-05, elementwise_affine=True)
        (dropout2): Dropout(p=0.1, inplace=False)
        (dropout3): Dropout(p=0.1, inplace=False)
      )
    )
    (in_proj_map): Sequential(
      (0): Linear(in_features=256, out_features=256, bias=True)
      (1): ReLU()
      (2): Linear(in_features=256, out_features=256, bias=True)
    )
    (map_decoder_layers): ModuleList(
      (0-5): 6 x TransformerDecoderLayer(
        (sa_qcontent_proj): Linear(in_features=256, out_features=256, bias=True)
        (sa_qpos_proj): Linear(in_features=256, out_features=256, bias=True)
        (sa_kcontent_proj): Linear(in_features=256, out_features=256, bias=True)
        (sa_kpos_proj): Linear(in_features=256, out_features=256, bias=True)
        (sa_v_proj): Linear(in_features=256, out_features=256, bias=True)
        (self_attn): MultiheadAttention(
          (out_proj): Linear(in_features=256, out_features=256, bias=True)
        )
        (norm1): LayerNorm((256,), eps=1e-05, elementwise_affine=True)
        (dropout1): Dropout(p=0.1, inplace=False)
        (ca_qcontent_proj): Linear(in_features=256, out_features=256, bias=True)
        (ca_qpos_proj): Linear(in_features=256, out_features=256, bias=True)
        (ca_kcontent_proj): Linear(in_features=256, out_features=256, bias=True)
        (ca_kpos_proj): Linear(in_features=256, out_features=256, bias=True)
        (ca_v_proj): Linear(in_features=256, out_features=256, bias=True)
        (ca_qpos_sine_proj): Linear(in_features=256, out_features=256, bias=True)
        (cross_attn): MultiheadAttentionLocal(
          (out_proj): Linear(in_features=256, out_features=256, bias=True)
        )
        (linear1): Linear(in_features=256, out_features=1024, bias=True)
        (dropout): Dropout(p=0.1, inplace=False)
        (linear2): Linear(in_features=1024, out_features=256, bias=True)
        (norm2): LayerNorm((256,), eps=1e-05, elementwise_affine=True)
        (norm3): LayerNorm((256,), eps=1e-05, elementwise_affine=True)
        (dropout2): Dropout(p=0.1, inplace=False)
        (dropout3): Dropout(p=0.1, inplace=False)
      )
    )
    (map_query_content_mlps): ModuleList(
      (0-5): 6 x Linear(in_features=512, out_features=256, bias=True)
    )
    (map_query_embed_mlps): Linear(in_features=512, out_features=256, bias=True)
    (obj_pos_encoding_layer): Sequential(
      (0): Linear(in_features=2, out_features=512, bias=True)
      (1): ReLU()
      (2): Linear(in_features=512, out_features=512, bias=True)
      (3): ReLU()
      (4): Linear(in_features=512, out_features=512, bias=True)
    )
    (dense_future_head): Sequential(
      (0): Linear(in_features=1024, out_features=512, bias=False)
      (1): BatchNorm1d(512, eps=1e-05, momentum=0.1, affine=True, track_running_stats=True)
      (2): ReLU()
      (3): Linear(in_features=512, out_features=512, bias=False)
      (4): BatchNorm1d(512, eps=1e-05, momentum=0.1, affine=True, track_running_stats=True)
      (5): ReLU()
      (6): Linear(in_features=512, out_features=700, bias=True)
    )
    (future_traj_mlps): Sequential(
      (0): Linear(in_features=400, out_features=512, bias=True)
      (1): ReLU()
      (2): Linear(in_features=512, out_features=512, bias=True)
      (3): ReLU()
      (4): Linear(in_features=512, out_features=512, bias=True)
    )
    (traj_fusion_mlps): Sequential(
      (0): Linear(in_features=1024, out_features=512, bias=True)
      (1): ReLU()
      (2): Linear(in_features=512, out_features=512, bias=True)
      (3): ReLU()
      (4): Linear(in_features=512, out_features=512, bias=True)
    )
    (intention_query_mlps): Sequential(
      (0): Linear(in_features=512, out_features=512, bias=False)
      (1): BatchNorm1d(512, eps=1e-05, momentum=0.1, affine=True, track_running_stats=True)
      (2): ReLU()
      (3): Linear(in_features=512, out_features=512, bias=True)
    )
    (query_feature_fusion_layers): ModuleList(
      (0-5): 6 x Sequential(
        (0): Linear(in_features=1280, out_features=512, bias=False)
        (1): BatchNorm1d(512, eps=1e-05, momentum=0.1, affine=True, track_running_stats=True)
        (2): ReLU()
        (3): Linear(in_features=512, out_features=512, bias=True)
      )
    )
    (motion_reg_heads): ModuleList(
      (0-5): 6 x Sequential(
        (0): Linear(in_features=512, out_features=512, bias=False)
        (1): BatchNorm1d(512, eps=1e-05, momentum=0.1, affine=True, track_running_stats=True)
        (2): ReLU()
        (3): Linear(in_features=512, out_features=512, bias=False)
        (4): BatchNorm1d(512, eps=1e-05, momentum=0.1, affine=True, track_running_stats=True)
        (5): ReLU()
        (6): Linear(in_features=512, out_features=700, bias=True)
      )
    )
    (motion_cls_heads): ModuleList(
      (0-5): 6 x Sequential(
        (0): Linear(in_features=512, out_features=512, bias=False)
        (1): BatchNorm1d(512, eps=1e-05, momentum=0.1, affine=True, track_running_stats=True)
        (2): ReLU()
        (3): Linear(in_features=512, out_features=512, bias=False)
        (4): BatchNorm1d(512, eps=1e-05, momentum=0.1, affine=True, track_running_stats=True)
        (5): ReLU()
        (6): Linear(in_features=512, out_features=1, bias=True)
      )
    )
  )
)
2025-03-08 14:34:38,590   INFO  Total number of parameters: 66320362
2025-03-08 14:34:39,110   INFO  **********************Start training social_aware/mtr_social_aware_train(result_social_aware_1)**********************
2025-03-08 14:34:39,918   INFO  epoch: 4/200, acc_iter=61, cur_iter=0/15, batch_size=64, iter_cost=0.59s, time_cost(epoch): 00:00/00:08, time_cost(all): 00:00/28:50, ade_TYPE_VEHICLE_layer_5=0.754, loss=4018.062, lr=0.0003
…
